TrainData.pth (torch, 9879 bytes, 6 tensors)

l1.weight f4 [8, 99]
000000 1a bd a2 3f c8 b9 82 3e 95 22 0d bd e4 7a e7 bf
       1.2713959 0.25532365 -0.034456808 -1.8084378
000010 5d 74 6b bf 11 b7 f6 3f 83 86 1c bf 9a 1e df 3c
       -0.9197443 1.9274617 -0.6114275 0.027236272
000020 8c 04 05 bf dd fb 32 3f 85 8a aa bf d9 de 72 3f
       -0.51960063 0.6991556 -1.3323523 0.9487129
000030 19 96 07 be 76 45 5f bf 55 a3 9f be 97 da a3 3e
       -0.13240851 -0.87215364 -0.311793 0.32002708
000040 83 f3 ef 3e c6 f5 e0 be 66 9b 50 be 49 b9 c4 be
       0.46865472 -0.4393751 -0.2037178 -0.3842261
000050 6b 00 ff 3f b2 20 e0 bb 9c 0e 60 bf d3 83 82 be
       1.9922003 -0.006839835 -0.8752229 -0.254912
000060 38 0c 89 3f 15 f9 24 be a6 9f 80 3e a2 cd 8e 3e
       1.0706854 -0.16110642 0.25121802 0.2789126
000070 87 37 7e 3f fa e0 f2 3f c8 be aa bf cb 12 6b 3f
       0.9930348 1.8974907 -1.3339472 0.9182555
000080 21 0f a1 be 0b 79 d0 bf 51 13 9d 3f 50 1c ac bf
       -0.31456855 -1.6286939 1.227152 -1.344614
000090 55 0c 93 bf 44 b6 d5 bd a5 50 04 3f a7 f9 f9 be
       -1.1488138 -0.10435155 0.51685554 -0.48823282
0000a0 88 67 b8 bd 73 a5 23 3e 46 11 82 3f b9 7a be bf
       -0.09004122 0.15981083 1.0161521 -1.4881202
0000b0 16 24 be 3e 60 79 6e 3f ea fc 44 be d6 3b 7f 3f
       0.37136906 0.93153954 -0.19237104 0.9970068
0000c0 6f bf 9d bf cf 7a b2 bd 58 49 fc be 4e 72 a3 3f
       -1.2324046 -0.0871483 -0.49274707 1.2769258
0000d0 77 9b 3d 3f 2c f5 9f bf 8c 5a 99 3e 0b da 3b be
       0.74065346 -1.2496696 0.29951894 -0.18344896
0000e0 19 ed 6e be f5 9a aa be ff 32 3d 3f 13 0f 7a 3f
       -0.23332633 -0.33321348 0.7390594 0.9767925
0000f0 fb a6 32 3f 1c 3d ce 3e 47 4d a8 3e 20 7c f7 be
       0.6978604 0.40280998 0.32871458 -0.48336887
000100 06 8f 17 40 63 ca b2 be 04 1b bb bf 58 03 57 3e
       2.3681045 -0.34920034 -1.461762 0.2099737
000110 30 01 94 be 64 c2 8b 3f 94 1c d5 be b8 5c 79 3f
       -0.28907156 1.0918698 -0.41623366 0.974071
000120 32 e0 12 3f d2 53 d2 bf ba c9 26 3f c3 f7 8c 3d
       0.57373345 -1.643183 0.6515156 0.06883194
000130 ae 73 34 be 6e 7a 5e bf 31 25 ed bf 52 ea 0c bf
       -0.17622253 -0.8690556 -1.8526975 -0.55045044
000140 11 7c c4 3f 16 e3 a7 bf 13 89 85 3f 77 73 19 bf
       1.5350362 -1.3116176 1.0432457 -0.5994181
000150 f3 2e 01 40 fb 3e e8 be ec 58 86 bd c0 c9 b2 3f
       2.0184906 -0.4536055 -0.06559929 1.3967819
000160 92 13 bf 3f b1 1d 18 3e ad 94 b5 3e e1 f8 7a 3f
       1.4927847 0.14855076 0.35464993 0.9803601
000170 2f 82 20 3c ad da aa bf ad fe 82 bf c5 09 0e 3f
       0.009796663 -1.3347985 -1.0233971 0.5548366
000180 1b ec ae be 1b 65 98 be aa eb 33 3f a5 e2 ef 3c
       -0.3416451 -0.29764637 0.7028147 0.029282877
000190 64 66 26 3f 45 c9 af 3d 41 5c ae bf 4d 6f 0b c0
       0.64999986 0.08583311 -1.3621904 -2.1786683
0001a0 52 60 a3 3e a3 2d 11 3f 1e 82 46 3e e9 7d 59 bf
       0.31909424 0.5671026 0.19385573 -0.8495775
0001b0 0e bb 37 3f 79 e5 46 3e 50 10 dd bd 07 72 84 bf
       0.717698 0.19423474 -0.10794127 -1.0347298
0001c0 0e 99 92 3f f7 ca bb 3e 62 52 d8 be 09 e9 bc 3e
       1.1452959 0.36678287 -0.42250353 0.36896542
0001d0 fd db e6 bd 9f 62 20 3d 13 f2 02 3e d5 3b 31 3f
       -0.11272428 0.039156552 0.12787656 0.6923192
0001e0 98 cd 62 3e 67 f8 84 3e c5 3e e0 3e f5 a3 6f bf
       0.2214874 0.25970766 0.4379789 -0.93609554
0001f0 83 c6 03 3f 6a 58 25 3f f2 bd 81 bf d6 f2 7b 3f
       0.5147478 0.64588034 -1.0136092 0.98417413
000200 70 e8 56 3f a9 cd 12 3e ff 87 1e bd b5 26 ac bd
       0.8394842 0.14336266 -0.038703915 -0.0840582
000210 b4 e7 9f 3f 90 86 02 40 00 b5 40 3f 5d 53 1c 40
       1.2492585 2.039463 0.75276184 2.442588
000220 08 dd e0 3f 79 d1 f5 3e 3b 23 02 3f 38 20 99 bf
       1.7567453 0.48011377 0.5083501 -1.1962957
000230 8b 1b 30 3f 7b bd 6a bf 3f 57 ea 3d 72 17 0a 3f
       0.6879203 -0.91695374 0.11442422 0.53942025
000240 3d 22 81 bd 88 03 8e 3d a5 2e 3b 40 5b ed e6 3e
       -0.063053586 0.06934267 2.924722 0.45102963
000250 da 15 97 bf be 74 2d 3f 5b 2d e3 3f 64 23 13 3e
       -1.1803544 0.6775626 1.7748216 0.14368969
000260 ae a1 11 3f 02 91 00 40 a4 89 84 bf 94 48 b1 be
       0.5688733 2.0088506 -1.0354505 -0.34625685
000270 e8 70 b0 3e 68 f3 45 3f a1 da 07 40 a2 72 04 3f
       0.3446114 0.77324533 2.122719 0.51737416
000280 a5 b4 fc 3e 7b 30 60 3f c0 e7 61 bf 4e 69 8e 3f
       0.4935657 0.87573975 -0.8824425 1.1125886
000290 5a de 06 bf 2e 6f 90 bf 20 6b 76 3f fc 90 e7 bd
       -0.5268303 -1.1283929 0.9625721 -0.113069504
0002a0 d8 df 28 bf 2f da 09 bf 41 98 1f 3f 7d b0 52 3e
       -0.6596656 -0.53848547 0.62341696 0.20575137
0002b0 43 1d 74 bf 4c 83 e0 3f 32 6c f3 3c ee 4a 6d 3f
       -0.9535715 1.7540069 0.029714677 0.9269246
0002c0 13 a8 bd 3e 54 f5 cc bd 92 56 24 3f 42 81 6e bf
       0.37042293 -0.1000773 0.64194596 -0.9316598
0002d0 5c f7 46 3e 3d e5 22 bf 5e af 05 3f 7c 38 90 be
       0.19430298 -0.6363104 0.52220714 -0.28168094
0002e0 b7 37 65 3e 42 be 63 3b 0a c2 a3 3f 53 a9 4e 3f
       0.22384535 0.0034750854 1.2793591 0.8072712
0002f0 6e a6 0b 40 d8 0c b4 3e 59 78 f6 3f ab ba 70 3e
       2.182033 0.3516605 1.9255477 0.23508708
000300 e7 8c 2f 40 c9 bc e0 3f 1b 17 c2 3e b7 90 c7 be
       2.742975 1.7557613 0.37908253 -0.38977596
000310 99 46 de be ae 52 0f 3f a1 a1 5a bf 13 c3 2c 3e
       -0.43413237 0.55985534 -0.85402876 0.1687129
000320 8d 54 6e bd 70 5d 27 be 18 33 b0 3c 00 fb 78 bf
       -0.058186103 -0.16344237 0.021508738 -0.97257996
000330 e4 4f 6e 3f 1a 0a 4a 3f 2a cf 84 3f 5f 65 96 bd
       0.93090653 0.78921664 1.0375721 -0.07343554
000340 24 5e c1 3f dd 83 e2 be 75 0a e7 bc b7 f8 06 3f
       1.5106854 -0.4424123 -0.028203228 0.5272326
000350 90 61 26 bc 09 3b 1b 3f 96 2a 3a 3f 9b ba de bd
       -0.010155097 0.60636955 0.7272123 -0.10875436
000360 a8 07 37 3e ac 2c fd be 4a 49 d2 bf 77 f5 13 3f
       0.17874014 -0.49448144 -1.6428616 0.57796425
000370 51 e8 99 3d 98 b9 fc bc 5a 40 30 3f 06 51 13 bf
       0.07515014 -0.030850217 0.6884819 -0.57545507
000380 52 18 06 be 36 b4 36 3f bf fe 10 3f 96 68 0a bd
       -0.13095215 0.7136873 0.5663871 -0.033791147
000390 82 4b c2 3f 25 d1 b2 bc 61 71 b2 3e db 07 35 3e
       1.5179293 -0.021828244 0.34852126 0.17678778
0003a0 dd c7 69 3e d9 e6 21 3f 30 ea 17 bf b1 e1 8a be
       0.22830148 0.6324287 -0.59341717 -0.27125314
0003b0 13 71 68 be b5 e2 6f be 9b 5c 8c bd ea 53 54 bf
       -0.22699384 -0.23426326 -0.068536006 -0.8294054
0003c0 93 20 ec be 91 5a c5 3f 48 b2 56 3d a5 cb 12 bf
       -0.46118602 1.5418264 0.052416116 -0.57341987
0003d0 22 93 f4 3e 63 f8 be be 8b fa 63 3e 58 b2 5a bd
       0.47768503 -0.3729888 0.22263543 -0.053392738
0003e0 a9 4e 65 3f f3 ed 3a be 53 1b 07 3e 19 5c 15 be
       0.8957315 -0.18254833 0.13194017 -0.14585914
0003f0 e3 06 8f bf 7e 4b 32 be 2c d3 ee bd 91 f0 f4 be
       -1.1173977 -0.1741161 -0.116613716 -0.47839788

l1.bias f4 [8]
000000 57 eb b5 3f d2 ce ad 3f 4f 9b 4f 3f 66 5c 8e 3f
       1.4212445 1.3578742 0.8109636 1.1121948
000010 db b3 df 3f ef 6a 88 3f 0b 8f 93 3f e6 ac 94 3f
       1.7476763 1.0657634 1.1528028 1.1615264

l2.weight f4 [8, 8]
000000 7e b8 07 40 f6 50 eb 3e c1 eb 02 bf 87 9d c8 bf
       2.1206355 0.45960206 -0.5114098 -1.5673074
000010 5d e5 0a 40 4f 28 fd 3e 92 d1 de bf b8 54 1b 3f
       2.1702492 0.49444816 -1.7407706 0.60676146
000020 1e 03 db 3f 3f f2 db 3d 6e 14 03 3f 14 d8 0f 40
       1.7110326 0.10739564 0.5120305 2.2475634
000030 6f 13 91 3f df 87 fc 3f b1 23 b6 3f 8d e5 db bf
       1.1334056 1.9728965 1.4229642 -1.7179428
000040 19 b9 63 bf 8f 4a aa 3f 52 ed 21 3b aa 6c e8 3f
       -0.8895431 1.3304003 0.0024708104 1.8158162
000050 f1 f1 5b 3f 2a bd 27 bf 36 2b dd bf d2 e4 bd 3f
       0.8591605 -0.65523016 -1.7278812 1.4835455
000060 d3 ae 67 bf 19 99 c3 be 78 3d 3a 40 97 ad c2 be
       -0.90501136 -0.38202742 2.9100018 -0.38023064
000070 c7 9c 4b 40 e2 9a fe 3f 03 be 5f 3e dc 2f 03 3f
       3.181444 1.9891016 0.21849827 0.512449
000080 c2 cf 3c 3d 0f b9 16 be 49 f4 92 be 54 92 76 be
       0.04609657 -0.14719032 -0.28702 -0.24079257
000090 dc 9f b4 be ef a7 9b be 0d 87 33 bd e6 4a 17 be
       -0.35278213 -0.3040156 -0.043829966 -0.14774665
0000a0 ab a2 ef 3f a6 33 d1 3f 2a a5 b5 bf ac bb b9 3f
       1.8721517 1.6343887 -1.4191029 1.4510398
0000b0 d7 2a fc bf 6f 9d 5a bb b9 1d e2 3f a9 b8 92 3f
       -1.9700574 -0.0033357998 1.7665321 1.1462604
0000c0 e4 c3 4b bf 6b 4f b3 3f d5 f4 42 bf b9 b3 20 bf
       -0.7959578 1.4008611 -0.76154834 -0.62774235
0000d0 06 45 0d 3f 49 15 db 3f 36 e1 01 bf de c0 4d 3f
       0.55183446 1.7115871 -0.5073427 0.80372417
0000e0 97 5e 99 bf 9a 36 09 3e ba c1 87 3f 75 0f c1 3d
       -1.1981992 0.13399735 1.0605996 0.09426776
0000f0 c5 37 9e 3f d2 35 12 bf e9 99 f8 3f c3 9b fb 3f
       1.236077 -0.57113373 1.942197 1.965691

l2.bias f4 [8]
000000 83 da 82 3f 9c ce fd 3e 77 62 5e 3e 98 6b 32 be
       1.0222934 0.49571693 0.21717249 -0.17423856
000010 26 c3 9d 3d 77 75 75 3f 6f b2 8f be 82 84 e8 3e
       0.07703237 0.9588236 -0.28065822 0.45413595

l3.weight f4 [53, 8]
000000 61 3a 8f c0 3b d3 8e bd 73 24 f0 3e b4 3d 81 bd
       -4.4758763 -0.06973883 0.4690281 -0.06310597
000010 44 72 a0 3d 17 5c e6 be d3 7c 34 be 9d cb 65 3e
       0.078342944 -0.44992134 -0.17625742 0.22440954
000020 ba fa aa 3f 0f 3d fc 3d 28 8d 22 c0 fb 0e 9f bf
       1.3357766 0.123163335 -2.5398655 -1.2426447
000030 86 81 85 be 55 6d 1d 3f b4 2a 06 c0 19 3c 82 c0
       -0.2607538 0.6149495 -2.0963564 -4.069836
000040 36 48 3e 3f 86 c7 11 bd cc e2 29 c0 08 2a 41 bd
       0.74328935 -0.03559067 -2.6544676 -0.047159225
000050 52 a7 57 be 71 bf 5c bf 0b 01 d2 be 2f df 2b bf
       -0.21059921 -0.86229616 -0.4101642 -0.67137426
000060 6a 1e 49 3f 39 06 89 3e c3 f5 2e c0 5d c3 79 3e
       0.78562033 0.2676256 -2.73375 0.24390931
000070 ac 48 da be 9d 01 62 c0 40 0c fb be 8e 3b 60 c0
       -0.4263357 -3.5313485 -0.49032784 -3.503635
000080 6c 47 4f 3f 4e 50 20 c0 04 43 a3 be ed bd 34 c0
       0.80968356 -2.5049014 -0.31887066 -2.8240921
000090 e8 25 1e 3e e1 5a 18 3f 02 c4 94 bd 5b 70 e3 be
       0.15444148 0.5951367 -0.07263948 -0.44421658
0000a0 b2 6e 57 3e f8 9d 42 3f 2e 58 87 c0 4a 91 1e c0
       0.2103832 0.7602229 -4.229514 -2.4776177
0000b0 e4 6b e5 3d c7 39 80 3f 7e 6e 40 c0 74 2e ce bf
       0.11202219 1.0017632 -3.006744 -1.6107926
0000c0 2b e7 d6 bf 84 4b 05 3f 5c e8 22 c0 03 01 8e 3e
       -1.6789297 0.5206835 -2.545432 0.27735147
0000d0 ff 5c a1 3e 84 54 d8 be e2 6a 55 c0 83 ab 0f 3f
       0.31516263 -0.4225198 -3.3346486 0.5612108
0000e0 5a 71 81 3e 2b 9e 88 3e c8 c0 37 c0 58 78 75 3e
       0.25281793 0.26683173 -2.8711414 0.23971689
0000f0 a0 5a c2 3d 56 78 16 bf 5f a6 9d c0 79 04 d9 bd
       0.094899416 -0.5877737 -4.926559 -0.10596556
000100 e4 a9 01 c0 42 7f c9 be 75 50 b9 bf e9 38 45 bf
       -2.0259943 -0.39354903 -1.4477679 -0.77039963
000110 86 bf df 3d 83 9c 0f 3f ec 99 81 bf dc d6 43 3f
       0.10925202 0.5609819 -1.0125098 0.76499724
000120 d5 f0 bf bf dd 85 76 be 06 bd 21 3d 34 e8 ad be
       -1.4995371 -0.24074502 0.039486907 -0.3396622
000130 c6 9c b1 be 8f e4 21 be e1 33 c2 3e 60 71 4d bd
       -0.3468992 -0.15809844 0.37930205 -0.05015695
000140 39 a6 9d be f5 a2 4f bf 86 01 a8 3f 98 33 90 be
       -0.3079088 -0.8110803 1.3125465 -0.28164363
000150 73 8e bc be db 13 8d bf 29 0d a9 bf 13 d1 e9 3e
       -0.3682743 -1.1021684 -1.3207141 0.45667323
000160 1f f9 3f 3f 5f 49 83 be c8 4a 17 3f 55 0d 29 c0
       0.74989504 -0.25641915 0.5909848 -2.6414387
000170 5a 6e 81 3e 00 bd e9 3e 9c 21 3a c0 9b 68 81 bf
       0.25279504 0.45652008 -2.9083014 -1.0110048
000180 dc b5 e9 3e 08 88 10 bf 52 08 a5 3d 25 a6 a6 3e
       0.4564656 -0.5645757 0.080582276 0.32548633
000190 45 9c 19 be 0a 49 15 c0 98 7c c6 bf ae b2 c5 3b
       -0.15001018 -2.332583 -1.5506773 0.006033263
0001a0 73 96 2a be 9f 19 65 c0 09 f9 54 3f 3d 1c 1a c0
       -0.16658954 -3.5796888 0.831925 -2.4079735
0001b0 13 2f 2f 3d f6 4b 9f 3c 6a 14 aa bd 8a 70 bc 3e
       0.042769503 0.0194454 -0.08304675 0.3680461
0001c0 45 e2 17 3e 67 2f 06 3f 84 46 6c c0 8d a4 29 be
       0.14832409 0.5241608 -3.691804 -0.16566677
0001d0 71 cc e7 bd ef 37 e8 3e f7 68 0d c0 d9 62 cc bf
       -0.11318291 0.45355174 -2.2095315 -1.5967666
0001e0 c0 cf 38 bf 78 28 23 3e 29 2c 44 c0 2a f1 9d 3e
       -0.72192 0.15933406 -3.0651953 0.30848056
0001f0 de 27 04 be 0b dd e6 bf 36 61 99 be cd b0 79 3f
       -0.12905833 -1.8036207 -0.2995698 0.975354
000200 e2 43 8c 3e 0a 35 d9 3b 03 1e 73 c0 12 62 e7 3e
       0.2739554 0.006628637 -3.7987068 0.4519201
000210 0e d3 91 3d 0c fc 87 c0 78 07 4b bf 4d aa 1c 3c
       0.071203336 -4.2495174 -0.7930827 0.009562087
000220 30 e6 34 c0 8b c0 17 c0 88 5f 17 3f 73 3c 8f 3d
       -2.8265495 -2.371127 0.59130144 0.06993952
000230 a1 d8 48 be 8e b4 2a 3e bf 22 9a bd 79 d4 88 3e
       -0.19613887 0.16670439 -0.075261585 0.26724604
000240 50 8e 2d 3d bf 52 8d bf 72 79 3f be 1a 29 f3 be
       0.042372048 -1.1040877 -0.18698671 -0.47492296
000250 77 f6 84 be 1d a5 64 3e 97 8b 7c be 97 d3 93 bd
       -0.25969288 0.2232861 -0.24662624 -0.07218092
000260 53 a6 8a 3e 40 9f 87 be b1 0e b2 bf 93 29 3e 3e
       0.2708002 -0.26488686 -1.3910733 0.18570547
000270 1f 89 19 3e 6d 0c 4e c0 51 6c 5a 3f 88 62 16 bf
       0.14993714 -3.2195084 0.8532153 -0.58744097
000280 65 a7 ab bf ef 96 cc be 8d d7 56 3e 21 ee 4a 3e
       -1.341046 -0.39958903 0.20980664 0.19817401
000290 7e 6c 9b be 7c 75 0b 3e 85 2a 58 c0 2d 0b 91 3e
       -0.3035621 0.13619035 -3.3775952 0.2832884
0002a0 60 e4 0d 3e e7 53 dc be 0a d0 2a 3e 65 8d fa be
       0.1385665 -0.43032762 0.16680923 -0.48936
0002b0 c4 86 7e be af 61 4d bf c9 5b c0 3e 46 7b aa be
       -0.24856097 -0.8022718 0.37570027 -0.33297175
0002c0 e2 09 8c 3e 6c 70 af bf b7 e7 bb be bd 6a 58 3e
       0.2735129 -1.3706183 -0.36700222 0.21134467
0002d0 82 9f b3 3b b0 d8 a8 bf d8 3d ff 3e 29 28 ad be
       0.0054816613 -1.3191128 0.4985187 -0.33819702
0002e0 84 d7 bc bf 8d 57 48 3e 50 46 c9 3e 68 c0 19 bf
       -1.475327 0.19564648 0.39311457 -0.60059214
0002f0 c4 3e 34 be 56 24 2b 3e ba 4b 05 bf 9c 02 8c be
       -0.17602068 0.1671308 -0.52068675 -0.2734574
000300 b3 98 f9 be e1 9a fa 3d 63 11 a0 3e 8e 08 d6 bf
       -0.48749313 0.12236572 0.31263265 -1.6721361
000310 6b cc c0 be 06 3a 7f 3e ec 87 a2 3e 94 2e d7 bf
       -0.3765596 0.24924478 0.31744325 -1.681109
000320 23 a6 92 3e 4e 4f 38 bd 54 01 da be 0b 6d 94 be
       0.28642377 -0.044997506 -0.42579138 -0.28989443
000330 4c 60 63 3e 58 02 04 be 6f 64 1a 3e 3a 73 ef bf
       0.22204703 -0.12891519 0.15077375 -1.8707039
000340 4d 96 4c bf 4e 95 44 bf 8b 2a dd 3e 0e 1e 29 bf
       -0.7991684 -0.7679032 0.4319652 -0.66061485
000350 5f 11 83 3e 04 4b 2f 3e bd d7 38 3f 62 47 9d bf
       0.2559919 0.1711846 0.7220419 -1.2287409
000360 65 bd bb bf c2 c6 9f bf 49 d6 44 3f f5 79 3c bf
       -1.4667174 -1.2482531 0.76889473 -0.7362359
000370 da c1 83 3e dd 8b 15 3e 6c 9b fe 3e 57 06 12 be
       0.25733835 0.14604135 0.49727952 -0.14260231
000380 eb 0c 61 bd b6 7a db bd 5a cd 45 bf 52 ba 24 bd
       -0.05494396 -0.10716765 -0.77266467 -0.04021675
000390 60 9e ad 3c fb 2d 2d bb ca 34 80 bf c3 91 47 3e
       0.021193683 -0.0026425112 -1.001611 0.19489197
0003a0 52 2a 5b 3e c4 de 56 3e 96 35 32 c0 78 ba 94 be
       0.21402863 0.20983416 -2.7845206 -0.29048514
0003b0 59 da 42 3e ed 33 2e bd e2 4a 7b 3f fd 21 64 c0
       0.19028606 -0.04252999 0.9816114 -3.5645745
0003c0 d5 84 68 c0 79 f5 0d 3e 35 bc 23 3e 72 30 54 c0
       -3.6331074 0.13863172 0.15989764 -3.3154569
0003d0 9d c6 93 be cf e0 2d 3f 4b 6a d0 bf e5 40 60 bd
       -0.28862467 0.67921156 -1.6282438 -0.05474939
0003e0 81 b1 9c 3f e5 01 34 bf 27 01 35 bf e2 ce 3b bf
       1.224167 -0.7031539 -0.70704883 -0.73362553
0003f0 d2 43 bf bc 7e 33 af bc f8 56 70 bf 01 cc 4b bf
       -0.023347769 -0.021386858 -0.93882704 -0.7960816

l3.bias f4 [53]
000000 99 70 7e be d0 2f a9 3e 36 08 45 3e 35 99 37 3d
       -0.2484764 0.3304429 0.19241413 0.044823844
000010 3f af 23 3f 05 5c 2a 3f 54 97 be 3e fe 22 84 3e
       0.6393928 0.6654666 0.3722483 0.25807947
000020 10 02 b3 3e c2 91 78 bf b3 87 83 bd b4 91 02 3f
       0.3496251 -0.9709741 -0.06422367 0.51003575
000030 62 5b 95 3e cf 57 0d 3f 6e 93 4a 3e 5a 0e e7 3e
       0.29171282 0.5521211 0.19782802 0.45128137
000040 88 ec f0 3c 8b c0 68 bd 92 ad 4c bf 6c 5d a4 be
       0.029409662 -0.05682425 -0.7995235 -0.32102525
000050 7c 76 4d be 23 7f db bd 02 d0 7d bf 82 37 c3 be
       -0.2006473 -0.10717609 -0.9914552 -0.38128287
000060 c3 15 f7 be 20 f3 28 bf b3 a6 de be ca c5 22 bf
       -0.4825879 -0.6599598 -0.43486556 -0.6358305
000070 ab e1 89 3f 4a 3c 3d 3e 06 84 c7 3e f6 a0 2c be
       1.0771993 0.1848003 0.38967913 -0.16858277
000080 62 62 a5 3d d0 af 8b 3d cc fc a7 3e 77 8f 3e be
       0.08075406 0.06820643 0.32810056 -0.18609415
000090 02 79 c3 bc d7 f9 71 bd 56 65 2b bd 42 30 3c be
       -0.023861412 -0.059076156 -0.04184469 -0.18377784
0000a0 49 fc 04 bf 43 96 65 bf 22 f3 7a be fd 14 13 3f
       -0.51947457 -0.89682406 -0.2450681 0.574539
0000b0 c3 c0 a8 be 5e 77 23 3e e3 0f dc bd 7b a6 cc be
       -0.32959566 0.15963504 -0.10745218 -0.39970765
0000c0 b4 08 e2 be 1b 6b 1a 3f a8 36 b4 3e 2a b9 f6 be
       -0.44147265 0.6031968 0.3519795 -0.48188144
0000d0 8a 52 44 be
       -0.19172111
